experiments/triggered_earthquake/models/te_model_2100.pth (torch_old, 41737 bytes, 51 tensors)

main.init_conv.weight f4 [16, 1, 3]
0.06933772 0.4560368 0.42697975 -0.124068186 0.31218994 0.31441832 -0.469881 0.2067966
0.54104227 -0.54252553 0.45672876 0.49572736 -0.17210412 0.018877357 0.1995007 0.04159945
0.24086405 0.09973834 0.12152978 -0.24440645 0.16991311 0.12200448 0.5515986 -0.53656733
0.4105269 0.014285405 0.45608652 -0.443794 0.051492155 -0.44512442 -0.042255845 -0.37374374
-0.3689018 0.41788998 0.039896056 -0.563333 -0.53629357 -0.0014074784 0.3586388 0.10296741
0.23806876 0.4956055 -0.083912425 -0.043805353 0.42838028 -0.16192512 0.49499115 0.5434262
00000000: ef00 8e3d a87d e93e 179d da3e 7617 febd
00000010: 5cd7 9f3e 70fb a03e 3e94 f0be 7dc2 533e
00000020: bf81 0a3f f4e2 0abf 5ad8 e93e facf fd3e
00000030: 103c 30be b0a4 9a3c e949 4c3e 2f64 2a3d
00000040: 11a5 763e 9d43 cc3d 9be4 f83d af45 7abe
00000050: b4fd 2d3e 7cdd f93d 9135 0d3f 7a5c 09bf
00000060: 9530 d23e 550d 6a3c 2c84 e93e f838 e3be
00000070: 70e9 523d 59e7 e3be 7714 2dbd 575b bfbe
00000080: b2e0 bcbe adf5 d53e 0c6a 233d 9736 10bf
00000090: 894a 09bf 237b b8ba 819f b73e 94e0 d23d
000000a0: 4cc8 733e 01c0 fd3e 47da abbd 3e6d 33bd
000000b0: a954 db3e b3cf 25be 7b6f fd3e fb1d 0b3f

main.init_bn.weight f4 [16]
0.9919913 0.9946089 0.9938573 0.994489 0.9943722 0.99089456 0.99684614 0.9948685
0.9917645 0.9903821 0.9904209 0.99145854 0.99292463 0.9912604 0.99346834 0.99299216
00000000: 24f3 7d3f b09e 7e3f 6f6d 7e3f d596 7e3f
00000010: 2d8f 7e3f 44ab 7d3f 4f31 7f3f b4af 7e3f
00000020: 47e4 7d3f ae89 7d3f 398c 7d3f 3ad0 7d3f
00000030: 4f30 7e3f 3ec3 7d3f f153 7e3f bc34 7e3f

main.init_bn.bias f4 [16]
-0.0014462242 0.0027160237 -0.0010761439 0.0017135089 0.0025972365 0.0002976371 0.003411117 -0.0012104263
-0.0028168226 -0.0007787779 -0.0016869408 -0.0007661212 -0.0024806212 -0.0006659946 -0.00051590026 0.001791218
00000000: 3b8f bdba 51ff 313b 660d 8dba d197 e03a
00000010: 6636 2a3b 2d0c 9c39 0c8d 5f3b 2ba7 9eba
00000020: 719a 38bb e626 4cba 571c ddba 86d5 48ba
00000030: eb91 22bb 2496 2eba 7b3d 07ba 4dc7 ea3a

main.init_bn.running_mean f4 [16]
-1.9607467e-06 5.213158e-07 5.1250386e-06 4.6636374e-06 2.1392802e-06 -1.3407481e-06 1.6726565e-07 -4.888277e-06
-3.5049256e-06 3.5797734e-06 1.4148673e-06 -5.744207e-06 6.414327e-06 -1.1850586e-06 1.9490956e-06 5.4759795e-07
00000000: 5f95 03b6 8df0 0b35 bff7 ab36 577c 9c36
00000010: 8e90 0f36 c1f3 b3b5 a299 3334 fb05 a4b6
00000020: 2a36 6bb6 0a3c 7036 78e6 bd35 5dbe c0b6
00000030: a63a d736 4e0e 9fb5 35cd 0236 a5fe 1235

main.init_bn.running_var f4 [16]
0.5566022 0.27787477 0.6975537 0.866808 0.087728865 0.0940292 0.03411736 0.45193803
0.28281173 0.25145403 0.3895154 0.60903114 0.51443887 0.39662746 0.1974523 0.7588094
00000000: 7b7d 0e3f 9a45 8e3e e192 323f 21e7 5d3f
00000010: 31ab b33d 6292 c03d a5be 0b3d 6c64 e73e
00000020: b3cc 903e 95be 803e 906e c73e 77e9 1b3f
00000030: 44b2 033f c112 cb3e f030 4a3e 5541 423f

main.1.weight f4 [16, 16, 3]
0.06764209 0.14331721 0.116051346 0.031604473 0.06754639 -0.074830756 0.12310077 -0.07689305
0.09334341 -0.08594554 0.07432308 0.117887355 0.05229075 0.024073794 0.101510964 -0.0854044
0.07786212 -0.027334686 0.015077715 -0.085503146 0.007880686 -0.12318228 -0.12559175 0.09579305
0.027131531 -0.12609044 -0.11840321 0.12166066 0.07022013 -0.0048039253 0.033351276 -0.037018236
-0.027071163 0.07650552 -0.0332326 0.051194884 0.048547473 -0.003936787 0.08826333 -0.13051696
-0.11373169 0.10861646 0.10342811 0.017052436 -0.09691651 0.03774668 0.13031729 -0.04434986
-0.01307741 0.10856945 -0.1289755 -0.025090056 -0.015273691 0.113437116 -0.05538925 0.1388065
0.109829254 0.017338352 -0.100586 0.09542881 -0.054315057 -0.044800792 -0.09081993 -0.05096038
0.12053945 -0.05399482 -0.10813686 0.09693963 0.11860734 0.12141011 0.0028498012 0.012377202
0.07462578 -0.07725311 0.10987811 0.02108854 0.058313947 -0.13303153 -0.021229016 -0.14118013
-0.09741367 0.040222935 -0.13537546 -0.046831053 0.098179586 -0.0035047403 0.13285212 0.0807918
-0.10465383 -0.14361602 0.029737769 0.090372965 0.09405255 0.10638837 -0.02236915 -0.07533262
-0.024836726 0.08075096 0.034964707 0.037726652 0.051275324 0.087726556 -0.03319275 -0.05326473
0.052056707 0.05536951 -0.1202361 0.048673585 0.13503966 -0.090368874 0.06636256 0.13832314
0.031220207 -0.020872965 -0.037664972 -0.12996967 0.11972339 -0.07651851 0.1188005 0.13809906
-0.056416806 0.051351875 0.0034645456 0.055497706 0.068674676 -0.046933442 -0.08233488 -0.04073668
0.13360888 0.09988155 -0.11813198 0.13943487 -0.14004731 -0.008657017 0.068698 0.107418455
-0.0997532 -0.04067364 0.12870872 0.11189612 0.062431097 -0.04059101 0.06836107 -0.051408727
0.13605195 0.12301312 0.039595045 -0.13948908 -0.02202156 0.077612296 0.0059978347 -0.022283746
-0.13664448 -0.03233633 -0.114390366 -0.050966218 0.11828397 0.080848925 -0.0063793645 0.0035396283
0.058075827 -0.0889597 -0.021865737 -0.0022181494 -0.023603082 0.12606364 -0.07553969 0.0672888
-0.044563483 0.029922677 0.050514672 -0.042398762 -0.14083348 -0.13403767 0.050445247 0.04011972
0.04001835 0.03608793 0.0008557829 -0.04987562 0.04629907 0.14320481 0.08941537 0.017676717
-0.056414496 0.09239971 0.031741515 0.08655658 -0.05061353 -0.14213307 -0.060006563 -0.08106334
0.046760205 -0.058900464 0.13907161 0.030746985 -0.038846746 -0.10683297 0.038829643 0.10437128
0.08066022 -0.07424233 -0.07561689 0.090205446 -0.123373084 -0.07387777 -0.046768017 0.119017474
-0.12282503 0.097770765 0.11008741 0.004470417 0.096660286 0.016071461 -0.11358279 0.076173075
-0.12494992 -0.1267276 0.070654646 -0.036830608 -0.02017266 -0.072517306 0.11042433 -0.057037815
-0.13999993 -0.0013858683 0.088432275 0.1204595 0.017721131 -0.07713825 -0.10434365 0.056258246
0.023483079 0.1182892 0.008173714 -0.023388678 0.038456745 0.01649044 -0.09146171 0.13085157
0.073096305 -0.00731876 0.14085104 0.074015036 -0.10541386 -0.0784674 0.13957308 -0.010188257
0.093719035 -0.018697137 -0.012890483 0.119745575 -0.12823963 0.003912872 -0.10551437 0.016137147
00000000: f087 8a3d bfc1 123e 54ac ed3d b173 013d
00000010: c355 8a3d de40 99bd 421c fc3d 1a7a 9dbd
00000020: d42a bf3d 3704 b0bd b336 983d ed6e f13d
00000030: d32e 563d 6836 c53c fbe4 cf3d 81e8 aebd
00000040: 2d76 9f3d feec dfbc 8508 773c 461c afbd
00000050: fe1d 013c fe46 fcbd 209b 00be 262f c43d
00000060: f242 de3c da1d 01be 627d f2bd 3929 f93d
00000070: 92cf 8f3d 3f6a 9dbb 599b 083d 6fa0 17bd
00000080: 58c4 ddbc edae 9c3d e81e 08bd bab1 513d
00000090: b7d9 463d 2a00 81bb 68c3 b43d 3da6 05be
000000a0: 29ec e8bd 4e72 de3d 1ed2 d33d 8db1 8b3c
000000b0: 2a7c c6bd 439c 1a3d e571 053e 33a8 35bd
000000c0: a242 56bc a959 de3d 2712 04be a989 cdbc
000000d0: 813e 7abc b851 e83d d7df 62bd 4b23 0e3e
000000e0: 29ee e03d 2909 8e3c 0800 cebd 2e70 c33d
000000f0: 7779 5ebd 0981 37bd cdff b9bd d5bb 50bd
00000100: 63dd f63d ac29 5dbd dc76 ddbd 4988 c63d
00000110: 68e8 f23d dda5 f83d bbc3 3a3b bfc9 4a3c
00000120: 67d5 983d e136 9ebd c607 e13d e0c1 ac3c
00000130: 9bda 6e3d 6b39 08be 79e8 adbc 8691 10be
00000140: d180 c7bd cec0 243d dd9f 0abe ebd1 3fbd
00000150: 6112 c93d c9af 65bb 630a 083e 2c76 a53d
00000160: bf54 d6bd 1410 13be 9f9c f33c 7615 b93d
00000170: a09e c03d 25e2 d93d 823f b7bc fd47 9abd
00000180: 6476 cbbc c260 a53d 2737 0f3d 4387 1a3d
00000190: 1306 523d fba9 b33d 1ff5 07bd 1e2c 5abd
000001a0: 6a39 553d 24cb 623d 583e f6bd f45d 473d
000001b0: d647 0a3e 5113 b9bd 18e9 873d 95a4 0d3e
000001c0: 85c1 ff3c c8fd aabc 9646 1abd c516 05be
000001d0: 8931 f53d bdb5 9cbd ad4d f33d d769 0d3e
000001e0: 4f15 67bd 5856 523d 6e0d 633b 9051 633d
000001f0: 4fa5 8c3d 483d 40bd 319f a8bd 81db 26bd
00000200: c4d0 083e b38e cc3d 2eef f1bd 04c8 0e3e
00000210: 9068 0fbe 29d6 0dbc 89b1 8c3d 35fe db3d
00000220: 684b ccbd 6799 26bd 38cc 033e cb29 e53d
00000230: c0b7 7f3d c242 26bd e300 8c3d f591 52bd
00000240: 3451 0b3e 4dee fb3d 6a2e 223d 3ad6 0ebe
00000250: 8f66 b4bc 32f3 9e3d 7c89 c43b 678c b6bc
00000260: 88ec 0bbe 1973 04bd 7f45 eabd f4c1 50bd
00000270: de3e f23d 1f94 a53d fd09 d1bb 1cf9 673b
00000280: ebe0 6d3d 8130 b6bd c61f b3bc 5f5e 11bb
00000290: 405b c1bc d416 013e 8eb4 9abd b6ce 893d
000002a0: 3388 36bd 6720 f53c 79e8 4e3d 53aa 2dbd
000002b0: a736 10be 2c41 09be ad9f 4e3d 9354 243d
000002c0: 48ea 233d f0d0 133d 9e56 603a 614a 4cbd
000002d0: 18a4 3d3d 48a4 123e 681f b73d c3ce 903c
000002e0: e312 67bd 0f3c bd3d 6403 023d 9444 b13d
000002f0: 2250 4fbd 558b 11be 71c9 75bd 8904 a6bd
00000300: a187 3f3d 9d41 71bd ca68 0e3e 1ae1 fb3c
00000310: c41d 1fbd 3fcb dabd d50b 1f3d 9cc0 d53d
00000320: 2f31 a53d 5d0c 98bd 07dd 9abd a2bd b83d
00000330: 07ab fcbd 3a4d 97bd d28f 3fbd 6fbf f33d
00000340: b08b fbbd 0a3c c83d 8275 e13d 937c 923b
00000350: d4f5 c53d 4ca8 833c 189e e8bd a100 9c3d
00000360: bee5 ffbd e1c4 01be 62b3 903d b1db 16bd
00000370: 2241 a5bc f483 94bd 2726 e23d 7ca0 69bd
00000380: 245c 0fbe 06a6 b5ba fb1b b53d 78b3 f63d
00000390: e82b 913c a9fa 9dbd 20b2 d5bd 0c6f 663d
000003a0: 965f c03c 9c41 f23d 0beb 053c 9d99 bfbc
000003b0: d284 1d3d f616 873c 4750 bbbd f4fd 053e
000003c0: 84b3 953d 35d2 efbb 413b 103e 3295 973d
000003d0: 39e3 d7bd 84b3 a0bd 3fec 0e3e a6ec 26bc
000003e0: c4ef bf3d bd2a 99bc 9b32 53bc 2b3d f53d
000003f0: 4051 03be 8d37 803b eb17 d8bd 0d32 843c

main.1_bn2.weight f4 [16]
0.9934985 0.9940734 0.99175686 0.99158746 0.99373955 0.9895834 0.98915315 0.9956264
0.9906934 0.9954607 0.99324477 0.98844016 0.9902531 0.9939614 0.9908956 0.98873675
00000000: eb55 7e3f 987b 7e3f c7e3 7d3f add8 7d3f
00000010: b765 7e3f 5655 7d3f 2439 7d3f 5fe1 7e3f
00000020: 159e 7d3f 83d6 7e3f 4a45 7e3f 6a0a 7d3f
00000030: 3a81 7d3f 4174 7e3f 56ab 7d3f da1d 7d3f

main.1_bn2.bias f4 [16]
0.0015729675 0.0037432062 -0.0006307393 4.3908796e-05 0.0036032978 -0.0023960983 0.0010880354 0.0022644603
0.00010725413 -0.0045199674 -0.00017524885 0.0007470929 -0.0005663804 0.0021237456 0.0027795213 -0.0008953416
00000000: 082c ce3a 9450 753b 3358 25ba b62a 3838
00000010: 4e25 6c3b dc07 1dbb 699c 8e3a 5767 143b
00000020: 9fed e038 3c1c 94bb 01c3 37b9 8ed8 433a
00000030: 2579 14ba 8a2e 0b3b a128 363b 5cb5 6aba

main.1_bn2.running_mean f4 [16]
0.20955583 0.07774409 0.2911996 0.015453458 0.04137037 0.16156942 0.0025662014 0.5374091
0.07720794 0.30950853 0.1840901 -0.04572274 -0.0011647521 0.049239714 0.26640394 0.025175894
00000000: ce95 563e 4b38 9f3d 1d18 953e 8030 7d3c
00000010: fa73 293d 7472 253e b72d 283b a593 093f
00000020: 321f 9e3d e777 9e3e 1d82 3c3e c547 3bbd
00000030: 98aa 98ba 95af 493d 1966 883e ad3d ce3c

main.1_bn2.running_var f4 [16]
0.20544723 0.08320335 0.20210941 0.029096726 0.064865954 0.15460452 0.037711963 0.49355003
0.20484914 0.13888465 0.0666285 0.072406165 0.067200236 0.06156214 0.23495804 0.095837556
00000000: c260 523e 8566 aa3d c5f5 4e3e 425c ee3c
00000010: 71d8 843d a650 1e3e dc77 1a3d 97b2 fc3e
00000020: f9c3 513e c737 0e3e 8674 883d af49 943d
00000030: 47a0 893d 9528 7c3d d798 703e 7b46 c43d

main.2.weight f4 [16, 16, 3]
0.033684913 0.08606631 0.11027038 0.05648576 0.116654076 -0.05123154 0.06612981 0.0988303
0.07546924 0.109070785 -0.024286231 -0.039817348 0.08875981 -0.105968416 0.075673975 -0.03642029
0.13571216 0.009531296 0.13768038 0.042938396 -0.0031846927 -0.12646724 0.04628273 -0.11861306
-0.058078706 0.07104837 -0.070617065 -0.03651972 0.1290485 -0.006751553 -0.13063148 0.010119768
-0.10794199 0.055319358 -0.029375471 0.09324563 -0.04010202 0.12628965 0.025209196 0.048392672
0.13203737 -0.029272424 0.042649616 -0.10792466 0.0070328787 0.027249461 0.04827028 -0.12883711
-0.0029830472 -0.11477088 0.037884846 0.03843524 -0.061574895 -0.113544084 0.07808219 -0.11597367
-0.025282579 -0.013295004 -0.11551939 -0.06741935 0.14459977 -0.044255354 0.11905129 0.04949675
-0.09836887 -0.082704306 -0.13690844 0.102210045 0.14413738 -0.09872892 -0.067820005 0.009873658
-0.109884776 0.08939262 -0.00257534 0.0193625 -0.1172685 0.13227727 0.08701931 0.09211069
-0.08149497 0.11861815 -0.12777007 -0.09739642 -0.1361885 0.080050275 0.04050605 -0.10898201
0.068237916 0.050248023 -0.054194972 0.013894167 0.006811744 0.05202897 -0.037251744 -0.13395223
0.13307457 -0.022194825 -0.11005092 0.067840695 -0.054701705 -0.12500511 0.043070495 -0.14165427
-0.022621106 0.13255212 0.14075007 0.11640275 0.10741048 -0.0036979632 -0.08215384 -0.024015112
0.025402205 -0.06190916 -0.06567371 -0.13136189 0.008086465 0.13682078 -0.02592242 0.14341311
0.11686778 -0.027471302 0.018844802 -0.140343 0.11201083 0.027857369 -0.06401046 -0.06677563
-0.099357046 -0.004072979 -0.06811704 -0.12217411 -0.10875926 -0.059051313 -0.09843274 -0.048808645
-0.023639685 -0.058697622 -0.03286845 0.034469016 0.023092229 -0.08313177 0.1055045 0.11530784
0.10964927 0.07304523 -0.13820931 0.06781234 -0.037534755 0.11329849 -0.06830014 -0.025018364
-0.042490367 -0.033432722 -0.0775643 -0.00967283 0.13243727 0.035179347 -0.1380448 0.08772485
0.0108794775 -0.00089564273 0.017328935 -0.011628184 -0.08082589 0.047096234 0.040894073 0.11591936
-0.054305848 0.04863937 0.1262566 -0.08768789 -0.11527327 0.13961497 0.08015461 0.0037682606
0.12280905 -0.0016976759 -0.07610448 0.08135041 0.0106955 0.030040624 -0.089975245 0.12520203
-0.09631141 0.12221636 0.002867604 -0.12226027 -0.021819647 -0.08859121 0.036853354 0.06460324
0.04314912 -0.030647086 0.09185301 0.03106791 0.13907252 -0.026663119 -0.06540347 -0.10171307
0.0919146 -0.007864156 0.033130378 -0.021887012 -0.08792941 -0.016869813 0.10395157 -0.13129704
-0.14228986 0.14109305 0.12821396 -0.1332166 -0.009352775 0.040359303 0.1406967 0.030893663
0.07648928 -0.08799262 0.07194412 -0.07737961 -0.1454049 0.08928372 -0.02904019 -0.015218614
-0.030450292 -0.1400649 0.068752274 0.057323806 -0.058614954 -0.055175703 -0.08063302 0.06414505
-0.07473901 -0.090423696 -0.030383974 0.032873154 0.05893644 -0.043171395 -0.02867176 0.08462647
-0.050898984 0.062068723 -0.07000257 0.09703584 -0.07016624 -0.06837923 -0.016815484 0.046582967
0.04124753 0.027271943 -0.012979078 -0.047164503 0.13758485 0.023696167 0.01904567 -0.0119074425
00000000: 31f9 093d 8943 b03d 70d5 e13d 9d5d 673d
00000010: 55e8 ee3d 2ad8 51bd 116f 873d 8a67 ca3d
00000020: 9e8f 9a3d 8160 df3d ebf3 c6bc 8417 23bd
00000030: b4c7 b53d f805 d9bd f5fa 9a3d 712d 15bd
00000040: 21f8 0a3e 2729 1c3c 16fc 0c3e 2ce0 2f3d
00000050: 47b6 50bb a180 01be f692 3d3d 67eb f2bd
00000060: f0e3 6dbd cf81 913d ae9f 90bd b495 15bd
00000070: 4a25 043e 223c ddbb 42c4 05be 62cd 253c
00000080: b110 ddbd 8d96 623d d4a4 f0bc 91f7 be3d
00000090: 0442 24bd 1352 013e 8483 ce3c 6537 463d
000000a0: ce34 073e b9cc efbc 5db1 2e3d 9b07 ddbd
000000b0: 1074 e63b 433a df3c 0fb7 453d e0ed 03be
000000c0: 3a7f 43bb ff0c ebbd 242d 1b3d 456e 1d3d
000000d0: f535 7cbd cd89 e8bd 8ee9 9f3d 9a83 edbd
000000e0: 691d cfbc 4ad3 59bc 6e95 ecbd 2813 8abd
000000f0: f611 143e 1a45 35bd 2ad1 f33d 1bbd 4a3d
00000100: 9e75 c9bd e060 a9bd ba31 0cbe 8053 d13d
00000110: c098 133e 6332 cabd 37e5 8abd 20c5 213c
00000120: 450b e1bd 7a13 b73d 09c7 28bb 1b9e 9e3c
00000130: 782a f0bd b173 073e 2e37 b23d 88a4 bc3d
00000140: d6e6 a6bd 13ee f23d 28d6 02be c677 c7bd
00000150: 0075 0bbe 66f1 a33d ace9 253d f631 dfbd
00000160: 52c0 8b3d dfd0 4d3d 8cfb 5dbd 5ca4 633c
00000170: 0d35 df3b 541c 553d 4995 18bd c62a 09be
00000180: b344 083e ecd1 b5bc 6062 e1bd 10f0 8a3d
00000190: e50e 60bd 5701 00be b06a 303d d10d 11be
000001a0: e64f b9bc bebb 073e c920 103e 9164 ee3d
000001b0: 07fa db3d 8759 72bb 4640 a8bd 57bb c4bc
000001c0: 4918 d03c 7694 7dbd f07f 86bd bb83 06be
000001d0: 187d 043c bf1a 0c3e 415b d4bc e3da 123e
000001e0: 6058 ef3d 7f0b e1bc 6a60 9a3c 13b6 0fbe
000001f0: ef65 e53d 2335 e43c eb17 83bd a9c1 88bd
00000200: b57b cbbd a076 85bb f280 8bbd 6b36 fabd
00000210: 2dbd debd cadf 71bd 1b97 c9bd 93eb 47bd
00000220: 03a8 c1bc eb6c 70bd 11a1 06bd 622f 0d3d
00000230: ea2b bd3c fd40 aabd be12 d83d 8426 ec3d
00000240: cc8f e03d bd98 953d be86 0dbe 32e1 8a3d
00000250: 0bbe 19bd 0a09 e83d f2e0 8bbd 50f3 ccbc
00000260: 610a 2ebd c0f0 08bd 08da 9ebd ca7a 1ebc
00000270: a39d 073e 3818 103d 9e5b 0dbe 16a9 b33d
00000280: d63f 323c 91c9 6aba 69f5 8d3c 2384 3ebc
00000290: 0b88 a5bd fbe7 403d 8b80 273d 2167 ed3d
000002a0: cf6f 5ebd 133a 473d 6949 013e b595 b3bd
000002b0: 6414 ecbd 3af7 0e3e 1a28 a43d ecf4 763b
000002c0: 5083 fb3d 8d84 deba aadc 9bbd 0b9b a63d
000002d0: 2e3c 2f3c c117 f63c f144 b8bd f634 003e
000002e0: eb3e c5bd 924c fa3d 69ee 3b3b 9863 fabd
000002f0: 1ebf b2bc 4f6f b5bd 8bf3 163d b44e 843d
00000300: 22bd 303d 990f fbbc 6e1d bc3d 2182 fe3c
00000310: 0769 0e3e 9d6c dabc 41f2 85bd f14e d0bd
00000320: b93d bc3d a9d8 00bc b8b3 073d 644c b3bc
00000330: 5614 b4bd 9032 8abc 90e4 d43d bb72 06be
00000340: 6fb4 11be b27a 103e 854a 033e ef69 08be
00000350: 623c 19bc cc4f 253d cc12 103e b514 fd3c
00000360: 69a6 9c3d 7a35 b4bd 7057 933d 3379 9ebd
00000370: 06e5 14be 62da b63d b1e5 edbc 7e57 79bc
00000380: e472 f9bc 2c6d 0fbe fecd 8c3d 5ecc 6a3d
00000390: 3c16 70bd ebff 61bd ed22 a5bd 7b5e 833d
000003a0: c410 99bd 0f30 b9bd d0e7 f8bc 00a6 063d
000003b0: 5667 713d 7dd4 30bd 0ae1 eabc a550 ad3d
000003c0: 747b 50bd c63b 7e3d 825d 8fbd baba c63d
000003d0: 51b3 8fbd 690a 8cbd a0c0 89bc c8cd 3e3d
000003e0: 2cf3 283d 6969 df3c 33a6 54bc 912f 41bd
000003f0: 0be3 0c3e 771e c23c aa05 9c3c 6f17 43bc

main.2_bn2.weight f4 [16]
0.9938402 0.980128 0.9854902 0.9943466 0.9879323 0.9815912 0.9911086 0.9899276
0.9928075 0.9892363 0.98158276 0.99406785 0.99250525 0.98627096 0.9778271 0.9875093
00000000: 506c 7e3f abe9 7a3f 1649 7c3f 808d 7e3f
00000010: 22e9 7c3f 9049 7b3f 4bb9 7d3f e56b 7d3f
00000020: a228 7e3f 973e 7d3f 0249 7b3f 3b7b 7e3f
00000030: d314 7e3f 417c 7c3f e052 7a3f 69cd 7c3f

main.2_bn2.bias f4 [16]
0.0020439236 -0.0020557952 -0.0047474 0.007242203 -0.0030790356 -0.00015705578 0.0038064057 -0.0049271453
0.004446627 -0.00488867 0.0014974419 0.0054704603 0.0050183525 0.0006092993 -0.001892634 0.0025449474
00000000: 59f3 053b 85ba 06bb 1490 9bbb 0150 ed3b
00000010: a5c9 49bb 57af 24b9 e474 793b e473 a1bb
00000020: 03b5 913b 2331 a0bb d045 c43a 8c41 b33b
00000030: fe70 a43b 62b9 1f3a 4212 f8ba 22c9 263b

main.2_bn2.running_mean f4 [16]
0.41119108 -0.27899006 -0.19193433 0.20814446 -0.06273883 -0.17772052 0.2156263 0.15473047
0.14858441 0.23697712 -0.09397129 0.20185052 0.112677895 -0.1148156 -0.28413156 -0.17522755
00000000: a387 d23e c9d7 8ebe 6f8a 44be d223 553e
00000010: 377d 80bd 5efc 35be 24cd 5c3e aa71 1e3e
00000020: 8326 183e 21aa 723e 0574 c0bd e7b1 4e3e
00000030: abc3 e63d 7124 ebbd b179 91be da6e 33be

main.2_bn2.running_var f4 [16]
0.33887425 0.32994485 0.184775 0.16892648 0.08735657 0.15577313 0.2927424 0.19007938
0.176108 0.311723 0.07084792 0.16798045 0.09615713 0.07523059 0.48843697 0.09407868
00000000: ed80 ad3e 88ee a83e a835 3d3e 10fb 2c3e
00000010: 00e8 b23d fe82 1f3e 55e2 953e 2ba4 423e
00000020: a855 343e 289a 9f3e b718 913d 1103 2c3e
00000030: 08ee c43d 7f12 9a3d 6914 fa3e 53ac c03d

main.3.weight f4 [16, 16, 3]
-0.053204563 -0.035366755 0.057021175 -0.11511014 -0.1289414 0.056555476 -0.0842595 -0.08453642
-0.11981142 -0.016784111 -0.07404472 0.09834457 0.122345366 0.10743724 0.016280064 -0.06815144
0.11138439 -0.13828942 0.044045545 -0.12762725 -0.11093847 -0.07091076 -0.028572846 -0.04165875
-0.072472624 -0.09751666 0.07074218 -0.11697057 0.12578247 0.0025407984 0.087619476 0.0076367767
-0.06427219 0.0055561066 -0.047094937 0.052411936 -0.040882725 -0.089020856 0.08603713 0.07544947
-0.11010397 -0.12211931 -0.104516245 -0.010542181 -0.011476321 0.031492677 -0.10575285 -0.11402002
0.036465738 -0.13743845 0.09307954 -0.04371091 0.013068978 -0.0789118 0.02680075 0.046917245
-0.006218742 -0.14086547 -0.043731276 -0.06010691 -0.08004185 -0.115164064 0.02548648 0.038740672
-0.11543944 0.12193289 0.107792966 -0.035247378 -0.045872964 0.005817123 0.06644652 0.09217536
-0.07688049 0.1266105 0.10204207 -0.011396823 0.08885176 -0.0016549301 -0.12852918 0.07333557
-0.12166078 0.0032438482 -0.025866285 -0.13928191 -0.13711037 0.07008836 -0.010258932 0.08908877
0.006431536 -0.11797522 -0.11522182 0.0104665905 0.11648329 -0.11327808 0.07234512 0.0064895046
-0.12717494 -0.025603078 -0.06936948 0.13643368 -0.09308929 -0.024259755 -0.09412917 0.076920435
-0.00029888694 0.1392549 -0.08775413 0.13819298 -0.020808257 0.009585437 0.060187206 0.1284933
0.09441958 0.06946877 0.121651694 0.07673331 0.09437371 0.07832487 0.05607547 0.04179574
-0.016969256 -0.051018544 -0.08389222 -0.024465593 -0.092462204 0.008342306 0.09502046 -0.104873374
0.008480501 0.03792266 0.13812356 0.11414688 0.08078314 -0.034749344 0.14213313 0.06723887
0.07166765 0.08669535 -0.088786066 -0.10225293 -0.028994832 -0.050551306 0.017305491 -0.12249297
0.06390951 0.019175103 0.058505476 0.12155554 -0.04999497 -0.07248623 0.1081043 0.018320892
0.13356557 0.073619984 -0.12254111 0.069005474 0.046927936 0.09170643 -0.02863602 0.10885894
-0.116929576 -0.08097554 -0.11342836 0.11401413 -0.11740438 -0.10016311 0.045111075 -0.14395347
0.06777422 0.00818771 -0.10512498 -0.035894606 0.13459662 -0.12645945 -0.10136638 -0.08123746
-0.002200569 -0.12537108 0.08922134 0.040488075 -0.03085467 0.04587031 -0.13764125 0.05162349
-0.12026853 -0.049060233 -0.121121444 -0.091970325 0.06902063 0.10740694 0.03437397 -0.12790607
-0.08226324 0.03190198 0.07728037 0.13469507 -0.028337894 0.034056034 0.045722615 -0.020734748
-0.08303043 0.017044958 0.03411158 -0.0056316187 -0.076076835 0.116551295 -0.031845354 0.07985823
0.10376195 -0.040349383 0.043236338 0.049519826 0.058904294 0.064062834 -0.047988165 0.041467123
-0.1252696 0.08595964 0.046831455 0.07421859 -0.08720123 0.13512023 -0.056354053 -0.08679758
-0.108516015 0.093868546 -0.10255879 0.08557425 -0.11571177 0.020596163 0.10656327 -0.14013556
-0.03871577 0.036764402 -0.01052174 -0.09806793 -0.09156009 -0.045538936 -0.11703351 -0.036571436
0.022150908 -0.062269818 -0.04041504 0.010195196 -0.009417543 -0.047459777 -0.13554913 -0.08600434
-0.06320877 0.057514682 -0.02405154 -0.0187346 -0.07206057 0.053713396 0.11536008 0.057804078
00000000: 07ed 59bd bbdc 10bd 098f 693d ddbe ebbd
00000010: 3709 04be b7a6 673d 3f90 acbd 6e21 adbd
00000020: b15f f5bd d57e 89bc c2a4 97bd e168 c93d
00000030: 3590 fa3d 0e08 dc3d c55d 853c fb92 8bbd
00000040: 801d e43d be9b 0dbe 1a69 343d b8b0 02be
00000050: b533 e3bd a939 91bd 9a11 eabc 5ea2 2abd
00000060: 876c 94bd d1b6 c7bd 47e1 903d 448e efbd
00000070: 1fcd 003e 8683 263b d771 b33d ed3d fa3b
00000080: 23a1 83bd 0010 b63b 9fe6 40bd e6ad 563d
00000090: a574 27bd 9150 b6bd 3c34 b03d 4085 9a3d
000000a0: 317e e1bd b019 fabd 9d0c d6bd 1db9 2cbc
000000b0: 2e07 3cbc 77fe 003d f394 d8bd 5483 e9bd
000000c0: 195d 153d aabc 0cbe 7ca0 be3d 360a 33bd
000000d0: 441f 563c 839c a1bd 3f8d db3c 4c2c 403d
000000e0: 97c6 cbbb 0a3f 10be 911f 33bd aa32 76bd
000000f0: fbec a3bd 23db ebbd 06c9 d03c 8aae 1e3d
00000100: 836b ecbd f3b7 f93d 8fc2 dc3d 8e5f 10bd
00000110: 4ae5 3bbd 919d be3b 1d15 883d 6fc6 bc3d
00000120: 8573 9dbd 2fa6 013e 6ffb d03d beb9 3abc
00000130: e9f7 b53d 3dea d8ba 279d 03be f630 963d
00000140: 4929 f9bd be96 543b 88e5 d3bc eb9f 0ebe
00000150: a966 0cbe 7c8a 8f3d 1415 28bc 2c74 b63d
00000160: a2bf d23b fe9c f1bd 6bf9 ebbd 107c 2b3c
00000170: cb8e ee3d 57fe e7bd ae29 943d e9a5 d43b
00000180: 263a 02be 8cbd d1bc 9611 8ebd 45b5 0b3e
00000190: 99a5 bebd 65bc c6bc cbc6 c0bd 7688 9d3d
000001a0: edb3 9cb9 d698 0e3e 70b8 b3bd 7682 0d3e
000001b0: 1476 aabc 3d0c 1d3c dc86 763d bf93 033e
000001c0: 0e5f c13d a445 8e3d 8624 f93d 5b26 9d3d
000001d0: 0147 c13d ca68 a03d 64af 653d 0332 2b3d
000001e0: 1c03 8bbc d2f8 50bd afcf abbd 116c c8bc
000001f0: d35c bdbd 2bae 083c 169a c23d dac7 d6bd
00000200: cdf1 0a3c cb54 1b3d 4370 0d3e d7c5 e93d
00000210: a271 a53d 5455 0ebd 598b 113e 88b4 893d
00000220: 7dc6 923d 558d b13d 78d5 b5bd fc69 d1bd
00000230: 9286 edbc e30e 4fbd 3fc4 8d3c 98dd fabd
00000240: fde2 823d 1b15 9d3c 70a3 6f3d 1cf2 f83d
00000250: 87c7 4cbd a973 94bd ca65 dd3d b215 963c
00000260: 6ac5 083e 13c6 963d d5f6 fabd be52 8d3d
00000270: 8237 403d 95d0 bb3d 1696 eabc 70f1 de3d
00000280: c678 efbd 81d6 a5bd 214d e8bd 3d80 e93d
00000290: b571 f0bd 5122 cdbd 64c6 383d 8a68 13be
000002a0: 36cd 8a3d bf25 063c c44b d7bd 3906 13bd
000002b0: b2d3 093e 967e 01be 2d99 cfbd d35f a6bd
000002c0: 6c37 10bb 4761 00be aeb9 b63d d3d6 253d
000002d0: efc2 fcbc 82e2 3b3d d4f1 0cbe 2773 533d
000002e0: 594f f6bd 62f3 48bd 850e f8bd f05a bcbd
000002f0: b05a 8d3d 2bf8 db3d b8cb 0c3d cff9 02be
00000300: a179 a8bd a7ab 023d 2c45 9e3d 81ed 093e
00000310: df24 e8bc 577e 0b3d a347 3b3d ebdb a9bc
00000320: dc0b aabd dea1 8b3c 96b8 0b3d 7189 b8bb
00000330: 2cce 9bbd 72b2 ee3d 4670 02bd b68c a33d
00000340: 2581 d43d 6545 25bd 9618 313d 4dd5 4a3d
00000350: a145 713d 6033 833d 3d8f 44bd 6ed9 293d
00000360: ad46 00be 9c0b b03d 57d2 3f3d ebff 973d
00000370: 8f96 b2bd f55c 0a3e 82d3 66bd eec2 b1bd
00000380: a53d debd 273e c03d 580a d2bd 8d41 af3d
00000390: 4bfa ecbd 49b9 a83c d83d da3d b27f 0fbe
000003a0: 6d94 1ebd 4596 163d 6063 2cbc d7d7 c8bd
000003b0: db83 bbbd 0987 3abd 44af efbd eecb 15bd
000003c0: d275 b53c a30e 7fbd 3e8a 25bd c009 273c
000003d0: 0a4c 1abc 2f65 42bd 64cd 0abe 0b23 b0bd
000003e0: 9973 81bd 8494 6b3d bc07 c5bc 4e79 99bc
000003f0: 7e94 93bd 9402 5c3d e841 ec3d f8c3 6c3d

main.3_bn2.weight f4 [16]
0.97669715 0.98099416 0.9907962 0.98787194 0.9918555 0.97712886 0.98044646 0.9909183
0.98156774 0.9889237 0.9936573 0.9713831 0.9928627 0.9765924 0.98644465 0.99068964
00000000: d308 7a3f 6f22 7b3f d2a4 7d3f 2de5 7c3f
00000010: 3eea 7d3f 1e25 7a3f 8afe 7a3f d2ac 7d3f
00000020: 0648 7b3f 1b2a 7d3f 5360 7e3f 90ac 783f
00000030: 402c 7e3f f601 7a3f a387 7c3f d69d 7d3f

main.3_bn2.bias f4 [16]
0.001100211 0.0023847197 0.0032187095 0.0044264677 -0.0021463926 0.0015229397 0.0043595256 -0.0015973576
0.0008165275 0.008427131 -0.0036482266 -0.00011515661 -0.0015689759 0.0031491134 0.006920686 0.0032088594
00000000: f534 903a f548 1c3b fcf0 523b e70b 913b
00000010: 7eaa 0cbb 609d c73a 5ada 8e3b 6d5e d1ba
00000020: 3c0c 563a f311 0a3c 1617 6fbb 3c80 f1b8
00000030: 18a6 cdba 5b61 4e3b ecc6 e23b ba4b 523b

main.3_bn2.running_mean f4 [16]
-0.60045576 -0.21078382 0.45389906 -0.23424992 -0.0028413753 -0.2850745 -0.18815625 -0.23641421
-0.1817748 0.14565082 0.4863929 -0.41226843 0.25341 -0.35318926 0.37366128 0.06049108
00000000: 78b7 19bf b7d7 57be 7565 e83e 36df 6fbe
00000010: 5e36 3abb 49f5 91be 08ac 40be 9116 72be
00000020: 2c23 3abe 7d25 153e 7d08 f93e d914 d3be
00000030: f5be 813e 39d5 b4be 8850 bf3e 7fc5 773d

main.3_bn2.running_var f4 [16]
0.24942547 0.09066263 0.26638466 0.0988262 0.1820025 0.121848896 0.15090169 0.094471395
0.20583636 0.13217233 0.33704826 0.37203756 0.22776929 0.23990466 0.3398386 0.09619722
00000000: 6469 7f3e 54ad b93d 9263 883e 6465 ca3d
00000010: dd5e 3a3e ea8b f93d f985 1a3e 387a c13d
00000020: c4c6 523e 2f58 073e 9791 ac3e b57b be3e
00000030: 5a3c 693e 91a9 753e 53ff ad3e 0c03 c53d

main.4.weight f4 [16, 16, 3]
-0.12905864 0.05339136 -0.058062457 -0.037785616 0.12687978 0.12679914 -0.13785048 0.12827986
0.12649477 0.138161 0.06269929 0.090008795 -0.09071496 -0.08757302 -0.1266915 0.061477043
-0.018721446 0.0013985578 0.10960611 -0.12911034 -0.058515802 0.12844557 0.073369876 -0.08693462
0.01581277 -0.13641432 -0.0061228974 0.03926194 0.094545 0.0037439428 0.0023648734 0.01564186
-0.08625891 0.08576911 -0.0005833746 -0.07768653 0.019849366 0.05995687 -0.118593 -0.091187894
-0.057913586 0.1389712 0.1186721 -0.08443494 -0.0006037626 -0.13128187 0.07881772 0.035221614
-0.05448862 -0.019265398 0.12703957 -0.11460359 -0.07480965 -0.10571397 0.032560173 -0.12019232
0.123452395 -0.04027152 0.025426479 -0.0029752657 0.05336514 -0.13503031 0.06760809 6.8546855e-05
0.13009821 -0.057798035 -0.13368286 0.037075475 0.057640515 -0.05722292 0.09485248 0.11138941
0.13471173 0.10405806 -0.008472551 0.121583335 -0.12020495 0.095069155 -0.00052566855 -0.058267526
-0.06596686 -0.033592403 0.124561265 0.087951526 0.02808026 -0.08045692 0.09896358 -0.10262471
-0.062599994 0.07256017 -0.05956021 -0.06897144 -0.11031822 -0.018859299 0.061008427 -0.103968434
-0.026062675 0.055162832 -0.08972503 -0.028476808 0.045796517 0.10584262 -0.06641482 0.1029868
0.015267544 -0.021050042 0.03652618 0.028230157 0.14436997 0.020453827 0.038301904 -0.07493482
0.10616504 -0.07788622 -0.13713165 0.040854607 -0.10020257 -0.102438174 -0.035462912 0.14261101
-0.09893047 -0.115462564 -0.0697545 0.11938223 -0.07340948 -0.027174884 -0.01825592 -0.07943476
-0.12217564 -0.104619525 -0.053780127 0.042046107 0.1400423 -0.062440287 -0.13433498 -0.14237265
-0.09427835 -0.08056737 -0.043703586 0.118210174 0.06619588 0.093714185 0.012867078 0.14258207
-0.09288722 -0.0026983228 0.080265656 -0.067985676 0.07982958 -0.103688866 0.06641187 0.09362213
0.10344801 -0.13848259 0.11663135 0.032631066 0.109674506 -0.052330073 0.06737415 0.04596497
-0.07120768 -0.09221174 -0.11985176 0.046698377 -0.08332244 0.030271245 -0.036477543 -0.046172768
0.11483027 -0.11371956 -0.09957937 -0.053174 0.064453326 0.05363636 -0.016519107 0.0061521325
-0.08332021 -0.013886924 0.0714377 -0.074314594 0.084588535 -0.113761894 -0.03384349 0.03861783
-0.0023396725 -0.13309593 -0.008410217 -0.110714234 0.06793547 -0.13736945 -0.02126305 -0.073664635
0.08232402 0.086914435 0.044688635 0.12016912 0.02801824 0.0876588 0.08324735 -0.1383888
0.1030029 -0.07336849 -0.03669119 0.01065222 0.06626767 -0.03721496 0.0032386193 0.09942434
-0.045514014 -0.049032014 -0.037527073 0.061067928 0.00927703 0.083072625 -0.025613645 -0.1260417
0.07819417 -0.039811347 0.10755303 -0.12223884 -0.012054563 0.08750656 0.06858027 0.1176958
-0.023032218 -0.13198091 0.040978283 -0.11148666 0.09419247 0.1093822 0.11515371 0.058746148
0.13287103 -0.08923497 0.010353959 -0.13630663 -0.050580204 0.122507036 0.10188213 -0.10845309
0.040240623 -0.032633528 0.124581106 -0.015358142 -0.09875489 -0.11106954 -0.02516788 -0.10144907
0.05756927 -0.08669548 -0.10616278 0.012381055 -0.113268696 0.03593562 -0.12026991 -0.008979462
00000000: f327 04be e6b0 5a3d e6d2 6dbd 17c5 1abd
00000010: c6ec 013e a2d7 013e ad28 0dbe cc5b 033e
00000020: d887 013e 147a 0d3e 7c68 803d 8856 b83d
00000030: c4c8 b9bd 7c59 b3bd 6bbb 01be 5acf 7b3d
00000040: b85d 99bc d04f b73a 2b79 e03d 8035 04be
00000050: 44ae 6fbd 3c87 033e f242 963d c70a b2bd
00000060: c889 813c 32b0 0bbe 96a2 c8bb 21d1 203d
00000070: cfa0 c13d f05c 753b fefb 1a3b 5c23 803c
00000080: 83a8 b0bd b7a7 af3d 9bed 18ba 1e1a 9fbd
00000090: 239b a23c 5695 753d e3e0 f2bd b8c0 babd
000000a0: cc36 6dbd 774e 0e3e 5c0a f33d 3aec acbd
000000b0: d245 1eba c16e 06be 2f6b a13d 8a44 103d
000000c0: 762f 5fbd 78d2 9dbc a916 023e 49b5 eabd
000000d0: cd35 99bd 9180 d8bd d15d 053d 6427 f6bd
000000e0: 9cd4 fc3d c0f3 24bd 314b d03c adfc 42bb
000000f0: 6895 5a3d 6345 0abe 1c76 8a3d d0c0 8f38
00000100: 7738 053e a2bd 6cbd 29e4 08be 74dc 173d
00000110: 7618 6c3d 9562 6abd 0442 c23d 2220 e43d
00000120: dff1 093e 641c d53d 74d0 0abc af00 f93d
00000130: 032e f6bd 9eb3 c23d 05cd 09ba eea9 6ebd
00000140: a219 87bd 3098 09bd fa19 ff3d ee1f b43d
00000150: 9308 e63c 99c6 a4bd 6bad ca3d e72c d2bd
00000160: 6d34 80bd 6d9a 943d 68f5 73bd e640 8dbd
00000170: 85ee e1bd d17e 9abc f9e3 793d 67ed d4bd
00000180: 6481 d5bc 6cf2 613d c2c1 b7bd 3248 e9bc
00000190: 2195 3b3d 04c4 d83d 7e04 88bd beea d23d
000001a0: b924 7a3c 2371 acbc 7a9c 153d ee42 e73c
000001b0: b9d5 133e c98e a73c 75e2 1c3d 6d77 99bd
000001c0: 0e6d d93d cf82 9fbd 3d6c 0cbe 2957 273d
000001d0: 0137 cdbd 1bcb d1bd 8f41 11bd 9f08 123e
000001e0: 0f9c cabd a377 ecbd 73db 8ebd ac7e f43d
000001f0: b657 96bd dd9d debc 708d 95bc b1ae a2bd
00000200: 3937 fabd c342 d6bd 8d48 5cbd 8a38 2c3d
00000210: 4067 0f3e 63c1 7fbd 1c8f 09be 23ca 11be
00000220: 0215 c1bd 8100 a5bd 8802 33bd 2d18 f23d
00000230: b591 873d 39ed bf3d 70d0 523c 0901 123e
00000240: a83b bebd 58d6 30bb 5262 a43d 133c 8bbd
00000250: b17d a33d d45a d4bd f202 883d f6bc bf3d
00000260: 8ddc d33d 61ce 0dbe 6bdc ee3d 27a8 053d
00000270: 079d e03d 0f58 56bd 75fb 893d c445 3c3d
00000280: 55d5 91bd 82d9 bcbd d774 f5bd cc46 3f3d
00000290: f5a4 aabd 67fb f73c 7a69 15bd a81f 3dbd
000002a0: 222c eb3d cde5 e8bd 45f0 cbbd fbcc 59bd
000002b0: 1b00 843d cdb1 5b3d 1453 87bc d497 c93b
000002c0: c9a3 aabd fb85 63bc ee4d 923d 4032 98bd
000002d0: c13c ad3d fffb e8bd 799f 0abd bb2d 1e3d
000002e0: 3155 19bb 4d4a 08be 02cb 09bc 25be e2bd
000002f0: c021 8b3d 94aa 0cbe d92f aebc 7cdd 96bd
00000300: 7f99 a83d 3200 b23d 6e0b 373d 3a1b f63d
00000310: 8286 e53c 7586 b33d 967d aa3d cbb5 0dbe
00000320: 2ff3 d23d 3842 96bd 8049 16bd a686 2e3c
00000330: 58b7 873d b76e 18bd 043f 543b fd9e cb3d
00000340: e76c 3abd cbd5 48bd fdb5 19bd 5d22 7a3d
00000350: affe 173c fb21 aa3d b5d3 d1bc 1311 01be
00000360: 4424 a03d 3911 23bd c344 dc3d 5b58 fabd
00000370: 8080 45bc a436 b33d d073 8c3d 7f0a f13d
00000380: 10ae bcbc 0126 07be d8d8 273d 1e53 e4bd
00000390: fbe7 c03d c603 e03d b5d5 eb3d cd9f 703d
000003a0: 580f 083e d3c0 b6bd a7a3 293c f793 0bbe
000003b0: 302d 4fbd f8e4 fa3d 94a7 d03d a71c debd
000003c0: 5ad3 243d bcaa 05bd 6124 ff3d b7a0 7bbc
000003d0: 0140 cabd 6d78 e3bd df2c cebc 88c4 cfbd
000003e0: c1cd 6b3d 668d b1bd df6b d9bd e9d9 4a3c
000003f0: 6bf9 e7bd 3b31 133d 1250 f6bd 981e 13bc

main.4_bn2.weight f4 [16]
0.9821796 0.9770651 0.9908208 0.98318243 0.9948758 0.9770887 0.9904056 0.9781917
0.98134106 0.9872924 0.9820875 0.9849771 0.9833326 0.9887589 0.9974174 0.9873466
00000000: 1f70 7b3f f020 7a3f 6fa6 7d3f d8b1 7b3f
00000010: 2eb0 7e3f 7c22 7a3f 398b 7d3f c56a 7a3f
00000020: 2b39 7b3f 32bf 7c3f 166a 7b3f 7627 7c3f
00000030: afbb 7b3f 4e1f 7d3f bf56 7f3f bfc2 7c3f

main.4_bn2.bias f4 [16]
-0.0009892358 0.0010801265 0.005642156 -0.0015692747 0.0073375627 -0.0047846017 0.00866088 0.0033143582
-0.00412655 -0.0050955224 0.006185768 0.00303716 0.007471066 -0.002021647 0.009517803 0.0055325045
00000000: 3fa9 81ba 0893 8d3a d6e1 b83b 1fb0 cdba
00000010: f06f f03b 26c8 9cbb 5de6 0d3c b435 593b
00000020: 0338 87bb 57f8 a6bb fcb1 ca3b 170b 473b
00000030: d8cf f43b 9c7d 04bb 8ff0 1b3c 034a b53b

main.4_bn2.running_mean f4 [16]
0.10989646 -0.02520461 -0.14773074 -0.26469123 0.3703822 -0.40558293 0.09137951 -0.26549235
-0.06382736 -0.18535101 -0.042915124 -0.0585625 -0.3091225 0.1957403 0.050944753 0.0744159
00000000: 6511 e13d e679 cebc ba46 17be 9c85 87be
00000010: bca2 bd3e 91a8 cfbe 2e25 bb3d 9dee 87be
00000020: ebb7 82bd a8cc 3dbe c5c7 2fbd 3bdf 6fbd
00000030: 4e45 9ebe 2570 483e 72ab 503d 5d67 983d

main.4_bn2.running_var f4 [16]
0.07788558 0.123049796 0.17284253 0.07059795 0.24540028 0.18559907 0.07745768 0.10512076
0.06613207 0.11730131 0.056428984 0.110810034 0.11845342 0.16991207 0.12635216 0.103535905
00000000: 7a82 9f3d 8801 fc3d a2fd 303e a895 903d
00000010: 364a 7b3e af0d 3e3e 22a2 9e3d 8e49 d73d
00000020: 4070 873d ab3b f03d 1422 673d 5ff0 e23d
00000030: b597 f23d 6efd 2d3e 7662 013e a20a d43d

main.5.weight f4 [16, 16, 3]
0.11040866 0.031699263 0.095383056 0.12766854 0.060188305 0.08828618 -0.10580868 -0.06451591
0.050041582 0.07205301 0.055830117 -0.08876546 -0.06792723 -0.036035433 0.12539627 -0.01970326
-0.09580315 0.12215451 0.05788439 0.015956856 0.10518223 0.022616306 0.02919565 -0.068822436
0.13047142 0.11444231 -0.1306636 0.004498345 0.0822143 0.04014193 0.0036633404 -0.068743
-0.06420362 -0.071730316 -0.08314785 -0.13268255 0.0054328293 0.078525245 -0.0025107304 -0.11779547
-0.04169116 -0.10508463 -0.035057034 -0.061480824 0.051338214 0.1305922 -0.10353649 0.13541712
0.0574348 -0.00015941975 0.01078684 0.03257432 0.060180184 -0.09800786 0.08524513 0.034317847
0.080921724 0.008686846 -0.12592138 -0.08179818 0.021063913 0.095989175 -0.06624951 0.031637743
0.12509824 0.04655117 0.018089691 0.0695901 -0.13195045 0.1401181 0.12406682 -0.057109077
0.108769305 -0.020411769 0.09272393 -0.060616903 -0.049331255 -0.14325047 -0.12627211 -0.10332544
-0.035306 -0.11046779 -0.11085839 0.098127834 -0.094563864 0.0026175438 0.0009890962 0.039718896
-0.0800421 -0.039102685 0.013027245 -0.07864307 0.10320914 -0.11260075 -0.1177494 0.04376762
0.10618511 -0.049265265 0.002547371 -0.13588288 0.0072138 0.07373859 -0.13376547 -0.13112625
-0.038687304 0.0571493 -0.07108084 -0.0109394295 -0.092168316 -0.050611455 -0.03788453 0.110658534
-0.09833065 0.09647901 -0.058218174 -0.07109074 -0.10687309 -0.014385449 0.13657488 -0.0077320435
0.026568774 0.0016888375 0.0037620182 -0.10307008 0.12764965 -0.10618708 -0.09830927 -0.0049787047
0.0344179 0.123959005 -0.12640499 -0.06856411 0.07098677 0.07148575 -0.013417804 -0.105063275
-0.09884875 0.12279972 0.043151334 0.067643456 0.028811106 0.0722616 0.07609788 0.08110836
0.039081827 0.09986624 0.0868607 -0.03556805 0.08548694 0.0135090565 -0.0029447486 -0.03168354
0.022312757 -0.08479971 -0.10142097 -0.017697021 -0.11331413 0.115035 0.08617557 0.014772286
-0.0015895974 0.13565144 -0.004266709 0.0436724 -0.012027126 0.10836519 0.024212053 -0.07164353
0.084902935 0.10722673 0.08255972 0.009488413 -0.04628756 0.12207018 -0.12177999 -0.04935284
-0.026324742 -0.115757346 0.039330523 0.10255219 0.040544447 0.08852667 -0.025237564 0.13796645
-0.03608415 -0.09286259 0.13965182 -0.12236651 -0.12595299 0.07476523 0.091949604 0.10706408
0.07355844 0.063583486 0.13578695 0.010217922 -0.13335484 0.12669177 0.04548723 0.068558946
-0.11617192 -0.12397364 0.09004209 -0.06916851 0.11937478 0.0694606 0.10969402 -0.08950742
-0.12960239 -0.12685531 -0.0309868 0.025571445 0.03605438 -0.047225483 -0.098616004 -0.07405778
0.09291842 0.030423181 0.12439095 0.009939592 0.014325147 0.117990494 -0.03667148 -0.03333175
0.12558857 -0.07988809 0.06131103 -0.12896091 -0.034647115 -0.014210125 -0.12488762 0.018815324
0.011811101 0.13967842 -0.020945506 0.010549842 0.107107416 -0.11113299 -0.09226531 -0.08209039
-0.13068444 0.03745028 -0.121585906 -0.038427327 -0.0073670517 -0.061213445 -0.068938896 0.13072993
0.13412389 0.08485788 0.014692192 -0.102768295 0.10146022 0.059823025 0.1308269 -0.06989617
00000000: ef1d e23d 16d7 013d 3158 c33d 8bbb 023e
00000010: 0388 763d 62cf b43d 39b2 d8bd eb20 84bd
00000020: 67f8 4c3d 8790 933d 1fae 643d aaca b5bd
00000030: 6e1d 8bbd e499 13bd e167 003e bb68 a1bc
00000040: 7134 c4bd 252c fa3d 2f18 6d3d f4b7 823c
00000050: c869 d73d d545 b93c b72b ef3c c7f2 8cbd
00000060: 4d9a 053e bb60 ea3d aecc 05be da66 933b
00000070: f95f a83d dd6b 243d a714 703b 21c9 8cbd
00000080: 307d 83bd 58e7 92bd 6c49 aabd efdd 07be
00000090: e005 b23b d8d1 a03d 118b 24bb c03e f1bd
000000a0: 5ac4 2abd 9c36 d7bd f797 0fbd 51d3 7bbd
000000b0: 0548 523d f6b9 053e f00a d4bd c9aa 0a3e
000000c0: c140 6b3d ea29 27b9 49bb 303c a66c 053d
000000d0: 7f7f 763d 58b8 c8bd 0095 ae3d df90 0c3d
000000e0: 4aba a53d 4653 0e3c 89f1 00be ce85 a7bd
000000f0: 3a8e ac3c f995 c43d d3ad 87bd 9496 013d
00000100: c119 003e 71ac 3e3d d530 943c 4185 8e3d
00000110: 051e 07be 1f7b 0f3e bf16 fe3d 35eb 69bd
00000120: 71c2 de3d 9536 a7bc 0be6 bd3d 6e49 78bd
00000130: 920f 4abd 40b0 12be 7a4d 01be 4a9c d3bd
00000140: 069d 10bd f03c e2bd b909 e3bd 3ff7 c83d
00000150: b3aa c1bd 198b 2b3b 90a4 813a 48b0 223d
00000160: 1ded a3bd 232a 20bd 3a70 553c 9e0f a1bd
00000170: 505f d33d 399b e6bd 9926 f1bd ad45 333d
00000180: 9477 d93d 60ca 49bd cbf1 263b e224 0bbe
00000190: be61 ec3b 4204 973d d1f9 08be f645 06be
000001a0: 9476 1ebd 6215 6a3d d592 91bd 4b3b 33bc
000001b0: bec2 bcbd f54d 4fbd cf2c 1bbd f1a0 e23d
000001c0: 9461 c9bd ca96 c53d 2e76 6ebd 0698 91bd
000001d0: 47e0 dabd f2b0 6bbc 49da 0b3e 155d fdbb
000001e0: c2a6 d93c fc5b dd3a 318c 763b 6816 d3bd
000001f0: 97b6 023e 9d78 d9bd 5f56 c9bd 6724 a3bb
00000200: c9f9 0c3d 38de fd3d 4f70 01be 576b 8cbd
00000210: 8361 913d 1f67 923d 59d6 5bbc 6a2b d7bd
00000220: 3771 cabd 6b7e fb3d 74bf 303d a788 8a3d
00000230: 4505 ec3c e4fd 933d 35d9 9b3d 241c a63d
00000240: 4414 203d ac86 cc3d 06e4 b13d ceaf 11bd
00000250: c713 af3d 1755 5d3c affc 40bb 9ac6 01bd
00000260: 3ec9 b63c 78ab adbd ccb5 cfbd 58f9 90bc
00000270: 3d11 e8bd 7897 eb3d d17c b03d 7507 723c
00000280: 0a5a d0ba 36e8 0a3e c0cf 8bbb d5e1 323d
00000290: 6c0d 45bc 92ee dd3d 5b58 c63c d8b9 92bd
000002a0: 97e1 ad3d b099 db3d 1215 a93d 4a75 1b3c
000002b0: 0698 3dbd eeff f93d ca67 f9bd 3426 4abd
000002c0: fca6 d7bc 3012 edbd 0b19 213d e206 d23d
000002d0: ef11 263d 794d b53d 02bf cebc 1447 0d3e
000002e0: f9cc 13bd be2e bebd e300 0f3e 4b9b fabd
000002f0: d2f9 00be 831e 993d 1350 bc3d 6a44 db3d
00000300: cfa5 963d 0f38 823d bc0b 0b3e 1269 273c
00000310: 2c8e 08be 7dbb 013e d150 3a3d a268 8c3d
00000320: 8beb edbd e4e5 fdbd fd67 b83d 38a8 8dbd
00000330: c47a f43d 5c41 8e3d 42a7 e03d ab4f b7bd
00000340: 7db6 04be 5ce6 01be 08d8 fdbc 357b d13c
00000350: c2ad 133d 826f 41bd 30f7 c9bd 9bab 97bd
00000360: 034c be3d 093a f93c afc0 fe3d acd9 223c
00000370: 05b4 6a3c 00a5 f13d d534 16bd e086 08bd
00000380: 4a9a 003e 5e9c a3bd 4621 7b3d 540e 04be
00000390: 22ea 0dbd 96d1 68bc 15c5 ffbd 9822 9a3c
000003a0: 5983 413c dc07 0f3e e995 abbc 3fd9 2c3c
000003b0: 225b db3d b199 e3bd 98f5 bcbd 021f a8bd
000003c0: 24d2 05be 7765 193d 0802 f9bd f965 1dbd
000003d0: 4f67 f1bb f3ba 7abd d62f 8dbd 11de 053e
000003e0: c657 093e f8c9 ad3d 85b7 703c 2f78 d2bd
000003f0: 60ca cf3d fd08 753d 7df7 053e b925 8fbd

main.5_bn2.weight f4 [16]
0.9819153 0.97798675 0.9665631 0.9904109 0.98974186 0.9855572 0.9872662 0.98186225
0.9826214 0.9842784 0.98422486 0.98717165 0.99188787 0.9914496 0.96948075 0.98900104
00000000: cd5e 7b3f 575d 7a3f ae70 773f 928b 7d3f
00000010: b95f 7d3f 7a4d 7c3f 7abd 7c3f 535b 7b3f
00000020: 138d 7b3f abf9 7b3f 29f6 7b3f 48b7 7c3f
00000030: 5dec 7d3f a4cf 7d3f e42f 783f 2c2f 7d3f

main.5_bn2.bias f4 [16]
0.0067345067 -0.0033401677 0.0018419625 -0.0020835777 -0.0014864459 -0.00087584706 0.008221029 0.004689476
0.00045151272 0.0023385065 -0.0014453207 0.008316234 0.009772237 0.00642102 0.0030297881 0.006097932
00000000: 23ad dc3b b7e6 5abb 016e f13a a28c 08bb
00000010: d9d4 c2ba 1a99 65ba 7fb1 063c 2daa 993b
00000020: 03b9 ec39 a141 193b ea70 bdba d040 083c
00000030: bc1b 203c 6b67 d23b 698f 463b 29d1 c73b

main.5_bn2.running_mean f4 [16]
0.19556162 -0.15795857 -0.17863202 0.4088669 0.02454255 -0.055289816 0.23684412 -0.11913599
0.07001349 -0.08253934 0.5392744 0.058154676 0.11756792 -0.040699277 -0.4875619 0.46919525
00000000: 4e41 483e e4bf 21be 50eb 36be 0157 d13e
00000010: 750d c93c 9377 62bd 4487 723e 92fd f3bd
00000020: 3c63 8f3d 630a a9bd e30d 0a3f 9933 6e3d
00000030: 73c7 f03d 49b4 26bd b7a1 f9be 5c3a f03e

main.5_bn2.running_var f4 [16]
0.1343824 0.16173238 0.27349275 0.24388517 0.2470645 0.1492371 0.19697371 0.1024669
0.113218985 0.16864176 0.37029764 0.13862436 0.18986335 0.13822845 0.23047861 0.13977197
00000000: 8a9b 093e 2c9d 253e 3e07 8c3e 09bd 793e
00000010: 7afe 7c3e 9cd1 183e 7ab3 493e 2bda d13d
00000020: 5bdf e73d 6db0 2c3e a797 bd3e 8bf3 0d3e
00000030: 8a6b 423e c28b 0d3e 9602 6c3e 6220 0f3e

main.6.weight f4 [16, 16, 3]
0.10235807 -0.10373868 -0.09611081 -0.09420008 0.14318301 0.054878555 -0.043100867 -0.026948504
0.11301917 -0.12173075 0.09778668 0.074303575 0.051218655 -0.096857846 -0.079916164 -0.0061330115
-0.14787036 0.09884337 -0.09907269 -0.007688786 -0.06188373 -0.12590791 0.06414426 0.055626024
-0.07569466 0.0687023 -0.073346704 -0.10119705 -0.029620355 0.052610826 -0.017320499 -0.0798545
0.035056565 0.09263323 0.0069122384 0.11137186 0.07675452 0.025882855 -0.0072582564 0.046862744
0.107927725 -0.12623878 -0.061096516 0.1460231 -0.05005409 -0.09523474 -0.058136217 -0.10622588
0.013267255 0.048513103 0.118017256 -0.09022388 -0.015481431 -0.10677774 -0.10195652 0.13306484
-0.10119825 -0.087530665 -0.1019454 -0.030166632 -0.05523251 0.13127993 0.055019062 0.055982847
-0.051880065 0.07292599 0.038187873 -0.053773828 0.061345614 -0.07872833 0.11591199 0.039000742
0.033227414 0.08339304 -0.045262918 -0.12943898 -0.10501138 0.07649676 0.052893434 -0.015671268
-0.039616574 0.005585964 0.0058036167 0.11647621 0.11794389 0.09269699 0.05535873 -0.003032877
-0.06881544 -0.11058211 0.0063477145 -0.030618506 0.100846335 -0.0848208 0.11809582 -0.02625875
-0.046545602 0.13020323 -0.13410188 -0.03173714 0.08568022 0.10477649 -0.032645553 0.098510325
-0.1342189 0.03593842 0.08246977 -0.12061798 -0.061571006 0.0448519 0.075094454 0.0658974
0.021147814 0.07659123 -0.02109903 -0.06376157 -0.12786251 -0.090045124 -0.10612281 -0.106235184
0.011399791 0.039489612 0.05267352 -0.058591563 0.104969226 -0.063278794 0.056531504 0.08882133
0.052119624 0.12539579 0.04187618 0.09173904 0.10692366 0.116211325 0.09019297 -0.1175891
0.07737649 -0.01400152 -0.06607337 -0.07897846 -0.06339733 -0.108807996 0.12781258 0.13646547
0.101234116 -0.060686164 -0.102754906 -0.030993933 0.033937585 0.0031437115 0.087069005 -0.012308236
-0.09501378 0.09150267 -0.017624188 0.019337818 0.0628661 -0.055023525 -0.117093794 0.053775735
0.06616899 -0.14370346 0.087422185 0.033501275 -0.13284089 0.011137583 -0.10714926 0.098524965
-0.12704778 0.07632936 0.012637094 0.00832005 -0.018095259 0.09519486 -0.10909447 0.017057644
0.13399203 0.010827139 0.08192465 -0.006336263 -0.06766233 0.08900345 0.06267748 -0.053642012
-0.116980866 0.08799823 -0.1386772 0.059414707 0.09947067 -0.13208221 -0.051590245 0.09970717
-0.038211 0.038535062 0.06925186 -0.008942143 -0.030007914 -0.109186076 0.027447833 -0.037420385
0.027445456 -0.065729976 -0.0041694567 -0.12213257 0.042844288 -0.11742339 0.0071048117 -0.11483006
-0.024497792 0.049459055 0.033024583 0.061701532 -0.094752096 0.12770158 -0.06533318 -0.13656315
-0.122904815 0.087285474 -0.062570274 0.023992348 -0.12581195 0.06547083 -0.08362855 -0.055188984
0.10919008 0.023269694 -0.07208533 0.10007237 -0.06255298 0.052152596 -0.12853587 0.0667568
0.08011915 0.06370044 0.03661256 0.03935648 -0.07922337 0.10972633 0.072021924 -0.10962912
-0.06598944 -0.10559306 -0.042598475 0.019934693 0.048229247 -0.0021561948 -0.11211247 -0.11269758
-0.09859645 0.029222474 -0.05726794 0.017076455 -0.06857111 0.0018644144 0.07418182 0.025968375
00000000: 1ca1 d13d f274 d4bd bfd5 c4bd f9eb c0bd
00000010: 919e 123e 56c8 603d 898a 30bd 1cc3 dcbc
00000020: 9876 e73d f94d f9bd 6244 c83d 792c 983d
00000030: a7ca 513d 685d c6bd 16ab a3bd 6ef7 c8bb
00000040: 546b 17be 656e ca3d 9fe6 cabd 36f2 fbbb
00000050: cb79 7dbd 01ee 00be 115e 833d 1dd8 633d
00000060: cd05 9bbd cbb3 8c3d cc36 96bd 6640 cfbd
00000070: 63a6 f2bc 737e 573d b8e3 8dbc c28a a3bd
00000080: 7997 0f3d 7eb6 bd3d 0f80 e23b ee16 e43d
00000090: 7931 9d3d 4808 d43c abd6 edbb 26f3 3f3d
000000a0: 3609 dd3d bd44 01be 5740 7abd 1487 153e
000000b0: 8405 4dbd 6e0a c3bd 3e20 6ebd f48c d9bd
000000c0: e75e 593c adb5 463d 08b3 f13d 4cc7 b8bd
000000d0: d4a5 7dbc 4aae dabd 94ce d0bd 2642 083e
000000e0: 0741 cfbd 4743 b3bd c0c8 d0bd 0320 f7bc
000000f0: 7c3b 62bd 3f6e 063e ab5b 613d 454e 653d
00000100: 3180 54bd 395a 953d e36a 1c3d f241 5cbd
00000110: 8a45 7b3d 523c a1bd 4463 ed3d 3ebf 1f3d
00000120: 7819 083d f8c9 aa3d 9c65 39bd a78b 04be
00000130: 3510 d7bd 55aa 9c3d c9a6 583d 0861 80bc
00000140: fd44 22bd 760a b73b 442c be3b 148b ee3d
00000150: 918c f13d ebd7 bd3d d6bf 623d 3cc3 46bb
00000160: 1cef 8cbd e078 e2bd 7d00 d03b a9d3 fabc
00000170: 8688 ce3d 87b6 adbd 39dc f13d 971c d7bc
00000180: 9aa6 3ebd ff53 053e 0152 09be cefe 01bd
00000190: 1c79 af3d 0e95 d63d 58b7 05bd c8bf c93d
000001a0: ae70 09be 2a34 133d e9e5 a83d 8f06 f7bd
000001b0: e131 7cbd a0b6 373d 1fcb 993d 37f5 863d
000001c0: 2e3e ad3c dddb 9c3d dfd7 acbc 6d95 82bd
000001d0: 64ee 02be 9469 b8bd ea56 d9bd d591 d9bd
000001e0: 30c6 3a3c dcbf 213d 30c0 573d b5fd 6fbd
000001f0: 1bfa d63d 5098 81bd 948d 673d f5e7 b53d
00000200: 637b 553d c167 003e 5b86 2b3d aee1 bb3d
00000210: cbfa da3d 3400 ee3d 18b7 b83d 8ed2 f0bd
00000220: 9177 9e3d a266 65bc 7a51 87bd 75bf a1bd
00000230: 76d6 81bd bad6 debd 4de1 023e 9bbd 0b3e
00000240: d553 cf3d 0e92 78bd 2a71 d2bd fde6 fdbc
00000250: 2302 0b3d ba06 4e3b 3c51 b23d 7ca8 49bc
00000260: 9696 c2bd c065 bb3d 9a60 90bc 586a 9e3c
00000270: f1bf 803d 5960 61bd dfce efbd f243 5c3d
00000280: 9c83 873d 0027 13be 670a b33d a238 093d
00000290: 7107 08be 697a 363c 1271 dbbd 75c7 c93d
000002a0: d018 02be 9152 9c3d d00b 4f3c d250 083c
000002b0: 823c 94bc 86f5 c23d ec6c dfbd 79bc 8b3c
000002c0: 3535 093e 5064 313c 1cc8 a73d 6da0 cfbb
000002d0: 8c92 8abd 7147 b63d 0d5d 803d bab7 5bbd
000002e0: aa93 efbd 6a38 b43d 6501 0ebe d65c 733d
000002f0: 47b7 cb3d 8f40 07be 4b50 53bd 4633 cc3d
00000300: 2383 1cbd f1d6 1d3d ebd3 8d3d 1182 12bc
00000310: 28d3 f5bc f39c dfbd 47da e03c 1e46 19bd
00000320: 4bd5 e03c 709d 86bd f09f 88bb a420 fabd
00000330: 7e7d 2f3d ad7b f0bd 7bcf e83b 062c ebbd
00000340: 98af c8bc 9495 4a3d c944 073d bfba 7c3d
00000350: 630d c2bd 34c4 023e 67cd 85bd 36d7 0bbe
00000360: 85b5 fbbd bac2 b23d d824 80bd 9a8b c43c
00000370: d9d4 00be 9215 863d 7245 abbd d80d 62bd
00000380: 0c9f df3d 16a0 be3c 79a1 93bd bef2 cc3d
00000390: c71b 80bd f69d 553d e89e 03be cab7 883d
000003a0: 8215 a43d 6075 823d 0df7 153d 4334 213d
000003b0: dd3f a2bd 33b8 e03d 3b80 933d 3b85 e0bd
000003c0: 7925 87bd 2d41 d8bd bd7b 2ebd 154e a33c
000003d0: 088c 453d f24e 0dbb 399b e5bd fdcd e6bd
000003e0: f0ec c9bd f863 ef3c ca91 6abd ece3 8b3c
000003f0: 036f 8cbd 5e5f f43a a3ec 973d a1bb d43c

main.6_bn2.weight f4 [16]
0.97292554 0.98413235 0.99555737 0.9829468 0.97729117 0.9731695 0.98953503 0.9887736
0.9833104 0.98267394 0.9664701 0.98583204 0.9860041 0.9898349 0.97437185 0.9768187
00000000: a611 793f 19f0 7b3f d9dc 7e3f 67a2 7b3f
00000010: c12f 7a3f a321 793f 2b52 7d3f 4420 7d3f
00000020: 3bba 7b3f 8590 7b3f 966a 773f 7d5f 7c3f
00000030: c46a 7c3f d265 7d3f 6f70 793f ca10 7a3f

main.6_bn2.bias f4 [16]
0.011303866 0.0030637402 0.015073373 -0.000110948895 0.0020387068 0.007601769 0.004924059 0.0036679592
0.0045657754 -0.0011392543 -0.0020736095 -0.006230612 0.008731355 0.0060897963 0.0011260621 0.012575277
00000000: da33 393c 08c9 483b 4ff6 763c 3cad e8b8
00000010: d39b 053b 4318 f93b 005a a13b 2562 703b
00000020: 809c 953b 0853 95ba 65e5 07bb 292a ccbb
00000030: f50d 0f3c ea8c c73b 6098 933a 8908 4e3c

main.6_bn2.running_mean f4 [16]
-0.16441149 0.097307146 0.28522182 0.0006022405 -0.20155674 -0.3804437 0.17149574 -0.071124084
-0.023252392 -0.1100319 -0.5070869 0.4069596 -0.3469252 0.4384395 0.0021030505 -0.39145023
00000000: 7c5b 28be f848 c73d 9808 923e addf 1d3a
00000010: e464 4ebe 84c9 c2be 949c 2f3e 81a9 91bd
00000020: cd7b bebc 6858 e1bd 72d0 01bf 025d d03e
00000030: 2ea0 b1be 247b e03e 55d3 093b 2a6c c8be

main.6_bn2.running_var f4 [16]
0.24151705 0.111824155 0.47422093 0.09448045 0.15535095 0.29281864 0.21196774 0.109130755
0.1644089 0.16191548 0.22463489 0.7646905 0.51710004 0.7001482 0.36325267 0.18139848
00000000: 3f50 773e 1004 e53d 16cd f23e f77e c13d
00000010: 5214 1f3e 53ec 953e 120e 593e f27f df3d
00000020: cf5a 283e 2ccd 253e b006 663e c2c2 433f
00000030: ab60 043f ea3c 333f 41fc b93e 86c0 393e
